…
I1010 16:55:09.472164 19748 net.cpp:294] The NetState phase (0) differed from the phase (1) specified by a rule in layer accuracy
I1010 16:55:09.472440 19748 net.cpp:51] Initializing net from parameters: 
name: "CaffeNet"
state {
  phase: TRAIN
  level: 0
  stage: ""
}
layer {
  name: "data"
  type: "Data"
  top: "data"
  top: "label"
  include {
    phase: TRAIN
  }
  transform_param {
    mirror: true
    crop_size: 227
    mean_file: "/panfs/roc/groups/14/sbedros/tenna031/mo/kaggle-catdog/input/mean.binaryproto"
  }
  data_param {
    source: "/panfs/roc/groups/14/sbedros/tenna031/mo/kaggle-catdog/input/train_lmdb"
    batch_size: 256
    backend: LMDB
  }
}
layer {
  name: "conv1"
  type: "Convolution"
  bottom: "data"
  top: "conv1"
  param {
    lr_mult: 1
    decay_mult: 1
  }
  param {
    lr_mult: 2
    decay_mult: 0
  }
  convolution_param {
    num_output: 96
    kernel_size: 11
    stride: 4
    weight_filler {
      type: "gaussian"
      std: 0.01
    }
    bias_filler {
      type: "constant"
      value: 0
    }
  }
}
layer {
  name: "relu1"
  type: "ReLU"
  bottom: "conv1"
  top: "conv1"
}
layer {
  name: "pool1"
  type: "Pooling"
  bottom: "conv1"
  top: "pool1"
  pooling_param {
    pool: MAX
    kernel_size: 3
    stride: 2
  }
}
layer {
  name: "norm1"
  type: "LRN"
  bottom: "pool1"
  top: "norm1"
  lrn_param {
    local_size: 5
    alpha: 0.0001
    beta: 0.75
  }
}
layer {
  name: "conv2"
  type: "Convolution"
  bottom: "norm1"
  top: "conv2"
  param {
    lr_mult: 1
    decay_mult: 1
  }
  param {
    lr_mult: 2
    decay_mult: 0
  }
  convolution_param {
    num_output: 256
    pad: 2
    kernel_size: 5
    group: 2
    weight_filler {
      type: "gaussian"
      std: 0.01
    }
    bias_filler {
      type: "constant"
      value: 1
    }
  }
}
layer {
  name: "relu2"
  type: "ReLU"
  bottom: "conv2"
  top: "conv2"
}
layer {
  name: "pool2"
  type: "Pooling"
  bottom: "conv2"
  top: "pool2"
  pooling_param {
    pool: MAX
    kernel_size: 3
    stride: 2
  }
}
layer {
  name: "norm2"
  type: "LRN"
  bottom: "pool2"
  top: "norm2"
  lrn_param {
    local_size: 5
    alpha: 0.0001
    beta: 0.75
  }
}
layer {
  name: "conv3"
  type: "Convolution"
  bottom: "norm2"
  top: "conv3"
  param {
    lr_mult: 1
    decay_mult: 1
  }
  param {
    lr_mult: 2
    decay_mult: 0
  }
  convolution_param {
    num_output: 384
    pad: 1
    kernel_size: 3
    weight_filler {
      type: "gaussian"
      std: 0.01
    }
    bias_filler {
      type: "constant"
      value: 0
    }
  }
}
layer {
  name: "relu3"
  type: "ReLU"
  bottom: "conv3"
  top: "conv3"
}
layer {
  name: "conv4"
  type: "Convolution"
  bottom: "conv3"
  top: "conv4"
  param {
    lr_mult: 1
    decay_mult: 1
  }
  param {
    lr_mult: 2
    decay_mult: 0
  }
  convolution_param {
    num_output: 384
    pad: 1
    kernel_size: 3
    group: 2
    weight_filler {
      type: "gaussian"
      std: 0.01
    }
    bias_filler {
      type: "constant"
      value: 1
    }
  }
}
layer {
  name: "relu4"
  type: "ReLU"
  bottom: "conv4"
  top: "conv4"
}
layer {
  name: "conv5"
  type: "Convolution"
  bottom: "conv4"
  top: "conv5"
  param {
    lr_mult: 1
    decay_mult: 1
  }
  param {
    lr_mult: 2
    decay_mult: 0
  }
  convolution_param {
    num_output: 256
    pad: 1
    kernel_size: 3
    group: 2
    weight_filler {
      type: "gaussian"
      std: 0.01
    }
    bias_filler {
      type: "constant"
      value: 1
    }
  }
}
layer {
  name: "relu5"
  type: "ReLU"
  bottom: "conv5"
  top: "conv5"
}
layer {
  name: "pool5"
  type: "Pooling"
  bottom: "conv5"
  top: "pool5"
  pooling_param {
    pool: MAX
    kernel_size: 3
    stride: 2
  }
}
layer {
  name: "fc6"
  type: "InnerProduct"
  bottom: "pool5"
  top: "fc6"
  param {
    lr_mult: 1
    decay_mult: 1
  }
  param {
    lr_mult: 2
    decay_mult: 0
  }
  inner_product_param {
    num_output: 4096
    weight_filler {
      type: "gaussian"
      std: 0.005
    }
    bias_filler {
      type: "constant"
      value: 1
    }
  }
}
layer {
  name: "relu6"
  type: "ReLU"
  bottom: "fc6"
  top: "fc6"
}
layer {
  name: "drop6"
  type: "Dropout"
  bottom: "fc6"
  top: "fc6"
  dropout_param {
    dropout_ratio: 0.5
  }
}
layer {
  name: "fc7"
  type: "InnerProduct"
  bottom: "fc6"
  top: "fc7"
  param {
    lr_mult: 1
    decay_mult: 1
  }
  param {
    lr_mult: 2
    decay_mult: 0
  }
  inner_product_param {
    num_output: 4096
    weight_filler {
      type: "gaussian"
      std: 0.005
    }
    bias_filler {
      type: "constant"
      value: 1
    }
  }
}
layer {
  name: "relu7"
  type: "ReLU"
  bottom: "fc7"
  top: "fc7"
}
layer {
  name: "drop7"
  type: "Dropout"
  bottom: "fc7"
  top: "fc7"
  dropout_param {
    dropout_ratio: 0.5
  }
}
layer {
  name: "fc8"
  type: "InnerProduct"
  bottom: "fc7"
  top: "fc8"
  param {
    lr_mult: 1
    decay_mult: 1
  }
  param {
    lr_mult: 2
    decay_mult: 0
  }
  inner_product_param {
    num_output: 2
    weight_filler {
      type: "gaussian"
      std: 0.01
    }
    bias_filler {
      type: "constant"
      value: 0
    }
  }
}
layer {
  name: "loss"
  type: "SoftmaxWithLoss"
  bottom: "fc8"
  bottom: "label"
  top: "loss"
}
I1010 16:55:09.472652 19748 layer_factory.hpp:77] Creating layer data
I1010 16:55:09.498523 19748 db_lmdb.cpp:35] Opened lmdb /panfs/roc/groups/14/sbedros/tenna031/mo/kaggle-catdog/input/train_lmdb
I1010 16:55:09.532706 19748 net.cpp:84] Creating Layer data
I1010 16:55:09.532730 19748 net.cpp:380] data -> data
I1010 16:55:09.532776 19748 net.cpp:380] data -> label
I1010 16:55:09.532811 19748 data_transformer.cpp:25] Loading mean file from: /panfs/roc/groups/14/sbedros/tenna031/mo/kaggle-catdog/input/mean.binaryproto
I1010 16:55:09.688381 19748 data_layer.cpp:45] output data size: 256,3,227,227
I1010 16:55:10.083077 19748 net.cpp:122] Setting up data
I1010 16:55:10.083175 19748 net.cpp:129] Top shape: 256 3 227 227 (39574272)
I1010 16:55:10.083184 19748 net.cpp:129] Top shape: 256 (256)
I1010 16:55:10.083186 19748 net.cpp:137] Memory required for data: 158298112
I1010 16:55:10.083207 19748 layer_factory.hpp:77] Creating layer conv1
I1010 16:55:10.083250 19748 net.cpp:84] Creating Layer conv1
I1010 16:55:10.083258 19748 net.cpp:406] conv1 <- data
I1010 16:55:10.083287 19748 net.cpp:380] conv1 -> conv1
I1010 16:55:12.384120 19748 net.cpp:122] Setting up conv1
I1010 16:55:12.384157 19748 net.cpp:129] Top shape: 256 96 55 55 (74342400)
I1010 16:55:12.384161 19748 net.cpp:137] Memory required for data: 455667712
I1010 16:55:12.384197 19748 layer_factory.hpp:77] Creating layer relu1
I1010 16:55:12.384218 19748 net.cpp:84] Creating Layer relu1
I1010 16:55:12.384223 19748 net.cpp:406] relu1 <- conv1
I1010 16:55:12.384228 19748 net.cpp:367] relu1 -> conv1 (in-place)
I1010 16:55:12.384894 19748 net.cpp:122] Setting up relu1
I1010 16:55:12.384905 19748 net.cpp:129] Top shape: 256 96 55 55 (74342400)
I1010 16:55:12.384908 19748 net.cpp:137] Memory required for data: 753037312
I1010 16:55:12.384912 19748 layer_factory.hpp:77] Creating layer pool1
I1010 16:55:12.384924 19748 net.cpp:84] Creating Layer pool1
I1010 16:55:12.384928 19748 net.cpp:406] pool1 <- conv1
I1010 16:55:12.384933 19748 net.cpp:380] pool1 -> pool1
I1010 16:55:12.384991 19748 net.cpp:122] Setting up pool1
I1010 16:55:12.385025 19748 net.cpp:129] Top shape: 256 96 27 27 (17915904)
I1010 16:55:12.385027 19748 net.cpp:137] Memory required for data: 824700928
I1010 16:55:12.385030 19748 layer_factory.hpp:77] Creating layer norm1
I1010 16:55:12.385046 19748 net.cpp:84] Creating Layer norm1
I1010 16:55:12.385051 19748 net.cpp:406] norm1 <- pool1
I1010 16:55:12.385054 19748 net.cpp:380] norm1 -> norm1
I1010 16:55:12.385746 19748 net.cpp:122] Setting up norm1
I1010 16:55:12.385758 19748 net.cpp:129] Top shape: 256 96 27 27 (17915904)
I1010 16:55:12.385761 19748 net.cpp:137] Memory required for data: 896364544
I1010 16:55:12.385763 19748 layer_factory.hpp:77] Creating layer conv2
I1010 16:55:12.385777 19748 net.cpp:84] Creating Layer conv2
I1010 16:55:12.385782 19748 net.cpp:406] conv2 <- norm1
I1010 16:55:12.385787 19748 net.cpp:380] conv2 -> conv2
I1010 16:55:12.393213 19748 net.cpp:122] Setting up conv2
I1010 16:55:12.393225 19748 net.cpp:129] Top shape: 256 256 27 27 (47775744)
I1010 16:55:12.393229 19748 net.cpp:137] Memory required for data: 1087467520
I1010 16:55:12.393239 19748 layer_factory.hpp:77] Creating layer relu2
I1010 16:55:12.393245 19748 net.cpp:84] Creating Layer relu2
I1010 16:55:12.393249 19748 net.cpp:406] relu2 <- conv2
I1010 16:55:12.393254 19748 net.cpp:367] relu2 -> conv2 (in-place)
I1010 16:55:12.393455 19748 net.cpp:122] Setting up relu2
I1010 16:55:12.393465 19748 net.cpp:129] Top shape: 256 256 27 27 (47775744)
I1010 16:55:12.393466 19748 net.cpp:137] Memory required for data: 1278570496
I1010 16:55:12.393470 19748 layer_factory.hpp:77] Creating layer pool2
I1010 16:55:12.393476 19748 net.cpp:84] Creating Layer pool2
I1010 16:55:12.393477 19748 net.cpp:406] pool2 <- conv2
I1010 16:55:12.393482 19748 net.cpp:380] pool2 -> pool2
I1010 16:55:12.393519 19748 net.cpp:122] Setting up pool2
I1010 16:55:12.393525 19748 net.cpp:129] Top shape: 256 256 13 13 (11075584)
I1010 16:55:12.393527 19748 net.cpp:137] Memory required for data: 1322872832
I1010 16:55:12.393530 19748 layer_factory.hpp:77] Creating layer norm2
I1010 16:55:12.393537 19748 net.cpp:84] Creating Layer norm2
I1010 16:55:12.393539 19748 net.cpp:406] norm2 <- pool2
I1010 16:55:12.393543 19748 net.cpp:380] norm2 -> norm2
I1010 16:55:12.394218 19748 net.cpp:122] Setting up norm2
I1010 16:55:12.394229 19748 net.cpp:129] Top shape: 256 256 13 13 (11075584)
I1010 16:55:12.394232 19748 net.cpp:137] Memory required for data: 1367175168
I1010 16:55:12.394235 19748 layer_factory.hpp:77] Creating layer conv3
I1010 16:55:12.394244 19748 net.cpp:84] Creating Layer conv3
I1010 16:55:12.394248 19748 net.cpp:406] conv3 <- norm2
I1010 16:55:12.394253 19748 net.cpp:380] conv3 -> conv3
I1010 16:55:12.406868 19748 net.cpp:122] Setting up conv3
I1010 16:55:12.406883 19748 net.cpp:129] Top shape: 256 384 13 13 (16613376)
I1010 16:55:12.406888 19748 net.cpp:137] Memory required for data: 1433628672
I1010 16:55:12.406896 19748 layer_factory.hpp:77] Creating layer relu3
I1010 16:55:12.406903 19748 net.cpp:84] Creating Layer relu3
I1010 16:55:12.406905 19748 net.cpp:406] relu3 <- conv3
I1010 16:55:12.406909 19748 net.cpp:367] relu3 -> conv3 (in-place)
I1010 16:55:12.407124 19748 net.cpp:122] Setting up relu3
I1010 16:55:12.407135 19748 net.cpp:129] Top shape: 256 384 13 13 (16613376)
I1010 16:55:12.407138 19748 net.cpp:137] Memory required for data: 1500082176
I1010 16:55:12.407141 19748 layer_factory.hpp:77] Creating layer conv4
I1010 16:55:12.407152 19748 net.cpp:84] Creating Layer conv4
I1010 16:55:12.407155 19748 net.cpp:406] conv4 <- conv3
I1010 16:55:12.407160 19748 net.cpp:380] conv4 -> conv4
I1010 16:55:12.418617 19748 net.cpp:122] Setting up conv4
I1010 16:55:12.418628 19748 net.cpp:129] Top shape: 256 384 13 13 (16613376)
I1010 16:55:12.418632 19748 net.cpp:137] Memory required for data: 1566535680
I1010 16:55:12.418638 19748 layer_factory.hpp:77] Creating layer relu4
I1010 16:55:12.418644 19748 net.cpp:84] Creating Layer relu4
I1010 16:55:12.418647 19748 net.cpp:406] relu4 <- conv4
I1010 16:55:12.418653 19748 net.cpp:367] relu4 -> conv4 (in-place)
I1010 16:55:12.419320 19748 net.cpp:122] Setting up relu4
I1010 16:55:12.419332 19748 net.cpp:129] Top shape: 256 384 13 13 (16613376)
I1010 16:55:12.419337 19748 net.cpp:137] Memory required for data: 1632989184
I1010 16:55:12.419340 19748 layer_factory.hpp:77] Creating layer conv5
I1010 16:55:12.419350 19748 net.cpp:84] Creating Layer conv5
I1010 16:55:12.419353 19748 net.cpp:406] conv5 <- conv4
I1010 16:55:12.419361 19748 net.cpp:380] conv5 -> conv5
I1010 16:55:12.428683 19748 net.cpp:122] Setting up conv5
I1010 16:55:12.428694 19748 net.cpp:129] Top shape: 256 256 13 13 (11075584)
I1010 16:55:12.428697 19748 net.cpp:137] Memory required for data: 1677291520
I1010 16:55:12.428706 19748 layer_factory.hpp:77] Creating layer relu5
I1010 16:55:12.428712 19748 net.cpp:84] Creating Layer relu5
I1010 16:55:12.428716 19748 net.cpp:406] relu5 <- conv5
I1010 16:55:12.428724 19748 net.cpp:367] relu5 -> conv5 (in-place)
I1010 16:55:12.429399 19748 net.cpp:122] Setting up relu5
I1010 16:55:12.429409 19748 net.cpp:129] Top shape: 256 256 13 13 (11075584)
I1010 16:55:12.429412 19748 net.cpp:137] Memory required for data: 1721593856
I1010 16:55:12.429415 19748 layer_factory.hpp:77] Creating layer pool5
I1010 16:55:12.429421 19748 net.cpp:84] Creating Layer pool5
I1010 16:55:12.429425 19748 net.cpp:406] pool5 <- conv5
I1010 16:55:12.429432 19748 net.cpp:380] pool5 -> pool5
I1010 16:55:12.429476 19748 net.cpp:122] Setting up pool5
I1010 16:55:12.429481 19748 net.cpp:129] Top shape: 256 256 6 6 (2359296)
I1010 16:55:12.429484 19748 net.cpp:137] Memory required for data: 1731031040
I1010 16:55:12.429486 19748 layer_factory.hpp:77] Creating layer fc6
I1010 16:55:12.429502 19748 net.cpp:84] Creating Layer fc6
I1010 16:55:12.429507 19748 net.cpp:406] fc6 <- pool5
I1010 16:55:12.429513 19748 net.cpp:380] fc6 -> fc6
I1010 16:55:12.880880 19748 net.cpp:122] Setting up fc6
I1010 16:55:12.880920 19748 net.cpp:129] Top shape: 256 4096 (1048576)
I1010 16:55:12.880923 19748 net.cpp:137] Memory required for data: 1735225344
I1010 16:55:12.880936 19748 layer_factory.hpp:77] Creating layer relu6
I1010 16:55:12.880954 19748 net.cpp:84] Creating Layer relu6
I1010 16:55:12.880959 19748 net.cpp:406] relu6 <- fc6
I1010 16:55:12.880966 19748 net.cpp:367] relu6 -> fc6 (in-place)
I1010 16:55:12.881294 19748 net.cpp:122] Setting up relu6
I1010 16:55:12.881302 19748 net.cpp:129] Top shape: 256 4096 (1048576)
I1010 16:55:12.881305 19748 net.cpp:137] Memory required for data: 1739419648
I1010 16:55:12.881309 19748 layer_factory.hpp:77] Creating layer drop6
I1010 16:55:12.881319 19748 net.cpp:84] Creating Layer drop6
I1010 16:55:12.881322 19748 net.cpp:406] drop6 <- fc6
I1010 16:55:12.881326 19748 net.cpp:367] drop6 -> fc6 (in-place)
I1010 16:55:12.881361 19748 net.cpp:122] Setting up drop6
I1010 16:55:12.881368 19748 net.cpp:129] Top shape: 256 4096 (1048576)
I1010 16:55:12.881371 19748 net.cpp:137] Memory required for data: 1743613952
I1010 16:55:12.881373 19748 layer_factory.hpp:77] Creating layer fc7
I1010 16:55:12.881381 19748 net.cpp:84] Creating Layer fc7
I1010 16:55:12.881386 19748 net.cpp:406] fc7 <- fc6
I1010 16:55:12.881394 19748 net.cpp:380] fc7 -> fc7
I1010 16:55:13.082630 19748 net.cpp:122] Setting up fc7
I1010 16:55:13.082669 19748 net.cpp:129] Top shape: 256 4096 (1048576)
I1010 16:55:13.082671 19748 net.cpp:137] Memory required for data: 1747808256
I1010 16:55:13.082684 19748 layer_factory.hpp:77] Creating layer relu7
I1010 16:55:13.082697 19748 net.cpp:84] Creating Layer relu7
I1010 16:55:13.082701 19748 net.cpp:406] relu7 <- fc7
I1010 16:55:13.082711 19748 net.cpp:367] relu7 -> fc7 (in-place)
I1010 16:55:13.083619 19748 net.cpp:122] Setting up relu7
I1010 16:55:13.083633 19748 net.cpp:129] Top shape: 256 4096 (1048576)
I1010 16:55:13.083637 19748 net.cpp:137] Memory required for data: 1752002560
I1010 16:55:13.083640 19748 layer_factory.hpp:77] Creating layer drop7
I1010 16:55:13.083649 19748 net.cpp:84] Creating Layer drop7
I1010 16:55:13.083652 19748 net.cpp:406] drop7 <- fc7
I1010 16:55:13.083657 19748 net.cpp:367] drop7 -> fc7 (in-place)
I1010 16:55:13.083717 19748 net.cpp:122] Setting up drop7
I1010 16:55:13.083724 19748 net.cpp:129] Top shape: 256 4096 (1048576)
I1010 16:55:13.083725 19748 net.cpp:137] Memory required for data: 1756196864
I1010 16:55:13.083729 19748 layer_factory.hpp:77] Creating layer fc8
I1010 16:55:13.083736 19748 net.cpp:84] Creating Layer fc8
I1010 16:55:13.083740 19748 net.cpp:406] fc8 <- fc7
I1010 16:55:13.083745 19748 net.cpp:380] fc8 -> fc8
I1010 16:55:13.084591 19748 net.cpp:122] Setting up fc8
I1010 16:55:13.084602 19748 net.cpp:129] Top shape: 256 2 (512)
I1010 16:55:13.084604 19748 net.cpp:137] Memory required for data: 1756198912
I1010 16:55:13.084610 19748 layer_factory.hpp:77] Creating layer loss
I1010 16:55:13.084630 19748 net.cpp:84] Creating Layer loss
I1010 16:55:13.084635 19748 net.cpp:406] loss <- fc8
I1010 16:55:13.084638 19748 net.cpp:406] loss <- label
I1010 16:55:13.084647 19748 net.cpp:380] loss -> loss
I1010 16:55:13.084681 19748 layer_factory.hpp:77] Creating layer loss
…
I1010 16:55:13.085928 19748 net.cpp:294] The NetState phase (1) differed from the phase (0) specified by a rule in layer data
I1010 16:55:13.086179 19748 net.cpp:51] Initializing net from parameters: 
name: "CaffeNet"
state {
  phase: TEST
}
layer {
  name: "data"
  type: "Data"
  top: "data"
  top: "label"
  include {
    phase: TEST
  }
  transform_param {
    mirror: false
    crop_size: 227
    mean_file: "/panfs/roc/groups/14/sbedros/tenna031/mo/kaggle-catdog/input/mean.binaryproto"
  }
  data_param {
    source: "/panfs/roc/groups/14/sbedros/tenna031/mo/kaggle-catdog/input/validation_lmdb"
    batch_size: 50
    backend: LMDB
  }
}
layer {
  name: "conv1"
  type: "Convolution"
  bottom: "data"
  top: "conv1"
  param {
    lr_mult: 1
    decay_mult: 1
  }
  param {
    lr_mult: 2
    decay_mult: 0
  }
  convolution_param {
    num_output: 96
    kernel_size: 11
    stride: 4
    weight_filler {
      type: "gaussian"
      std: 0.01
    }
    bias_filler {
      type: "constant"
      value: 0
    }
  }
}
layer {
  name: "relu1"
  type: "ReLU"
  bottom: "conv1"
  top: "conv1"
}
layer {
  name: "pool1"
  type: "Pooling"
  bottom: "conv1"
  top: "pool1"
  pooling_param {
    pool: MAX
    kernel_size: 3
    stride: 2
  }
}
layer {
  name: "norm1"
  type: "LRN"
  bottom: "pool1"
  top: "norm1"
  lrn_param {
    local_size: 5
    alpha: 0.0001
    beta: 0.75
  }
}
layer {
  name: "conv2"
  type: "Convolution"
  bottom: "norm1"
  top: "conv2"
  param {
    lr_mult: 1
    decay_mult: 1
  }
  param {
    lr_mult: 2
    decay_mult: 0
  }
  convolution_param {
    num_output: 256
    pad: 2
    kernel_size: 5
    group: 2
    weight_filler {
      type: "gaussian"
      std: 0.01
    }
    bias_filler {
      type: "constant"
      value: 1
    }
  }
}
layer {
  name: "relu2"
  type: "ReLU"
  bottom: "conv2"
  top: "conv2"
}
layer {
  name: "pool2"
  type: "Pooling"
  bottom: "conv2"
  top: "pool2"
  pooling_param {
    pool: MAX
    kernel_size: 3
    stride: 2
  }
}
layer {
  name: "norm2"
  type: "LRN"
  bottom: "pool2"
  top: "norm2"
  lrn_param {
    local_size: 5
    alpha: 0.0001
    beta: 0.75
  }
}
layer {
  name: "conv3"
  type: "Convolution"
  bottom: "norm2"
  top: "conv3"
  param {
    lr_mult: 1
    decay_mult: 1
  }
  param {
    lr_mult: 2
    decay_mult: 0
  }
  convolution_param {
    num_output: 384
    pad: 1
    kernel_size: 3
    weight_filler {
      type: "gaussian"
      std: 0.01
    }
    bias_filler {
      type: "constant"
      value: 0
    }
  }
}
layer {
  name: "relu3"
  type: "ReLU"
  bottom: "conv3"
  top: "conv3"
}
layer {
  name: "conv4"
  type: "Convolution"
  bottom: "conv3"
  top: "conv4"
  param {
    lr_mult: 1
    decay_mult: 1
  }
  param {
    lr_mult: 2
    decay_mult: 0
  }
  convolution_param {
    num_output: 384
    pad: 1
    kernel_size: 3
    group: 2
    weight_filler {
      type: "gaussian"
      std: 0.01
    }
    bias_filler {
      type: "constant"
      value: 1
    }
  }
}
layer {
  name: "relu4"
  type: "ReLU"
  bottom: "conv4"
  top: "conv4"
}
layer {
  name: "conv5"
  type: "Convolution"
  bottom: "conv4"
  top: "conv5"
  param {
    lr_mult: 1
    decay_mult: 1
  }
  param {
    lr_mult: 2
    decay_mult: 0
  }
  convolution_param {
    num_output: 256
    pad: 1
    kernel_size: 3
    group: 2
    weight_filler {
      type: "gaussian"
      std: 0.01
    }
    bias_filler {
      type: "constant"
      value: 1
    }
  }
}
layer {
  name: "relu5"
  type: "ReLU"
  bottom: "conv5"
  top: "conv5"
}
layer {
  name: "pool5"
  type: "Pooling"
  bottom: "conv5"
  top: "pool5"
  pooling_param {
    pool: MAX
    kernel_size: 3
    stride: 2
  }
}
layer {
  name: "fc6"
  type: "InnerProduct"
  bottom: "pool5"
  top: "fc6"
  param {
    lr_mult: 1
    decay_mult: 1
  }
  param {
    lr_mult: 2
    decay_mult: 0
  }
  inner_product_param {
    num_output: 4096
    weight_filler {
      type: "gaussian"
      std: 0.005
    }
    bias_filler {
      type: "constant"
      value: 1
    }
  }
}
layer {
  name: "relu6"
  type: "ReLU"
  bottom: "fc6"
  top: "fc6"
}
layer {
  name: "drop6"
  type: "Dropout"
  bottom: "fc6"
  top: "fc6"
  dropout_param {
    dropout_ratio: 0.5
  }
}
layer {
  name: "fc7"
  type: "InnerProduct"
  bottom: "fc6"
  top: "fc7"
  param {
    lr_mult: 1
    decay_mult: 1
  }
  param {
    lr_mult: 2
    decay_mult: 0
  }
  inner_product_param {
    num_output: 4096
    weight_filler {
      type: "gaussian"
      std: 0.005
    }
    bias_filler {
      type: "constant"
      value: 1
    }
  }
}
layer {
  name: "relu7"
  type: "ReLU"
  bottom: "fc7"
  top: "fc7"
}
layer {
  name: "drop7"
  type: "Dropout"
  bottom: "fc7"
  top: "fc7"
  dropout_param {
    dropout_ratio: 0.5
  }
}
layer {
  name: "fc8"
  type: "InnerProduct"
  bottom: "fc7"
  top: "fc8"
  param {
    lr_mult: 1
    decay_mult: 1
  }
  param {
    lr_mult: 2
    decay_mult: 0
  }
  inner_product_param {
    num_output: 2
    weight_filler {
      type: "gaussian"
      std: 0.01
    }
    bias_filler {
      type: "constant"
      value: 0
    }
  }
}
layer {
  name: "accuracy"
  type: "Accuracy"
  bottom: "fc8"
  bottom: "label"
  top: "accuracy"
  include {
    phase: TEST
  }
}
layer {
  name: "loss"
  type: "SoftmaxWithLoss"
  bottom: "fc8"
  bottom: "label"
  top: "loss"
}
I1010 16:55:13.086318 19748 layer_factory.hpp:77] Creating layer data
I1010 16:55:13.118896 19748 db_lmdb.cpp:35] Opened lmdb /panfs/roc/groups/14/sbedros/tenna031/mo/kaggle-catdog/input/validation_lmdb
I1010 16:55:13.145195 19748 net.cpp:84] Creating Layer data
I1010 16:55:13.145226 19748 net.cpp:380] data -> data
I1010 16:55:13.145258 19748 net.cpp:380] data -> label
I1010 16:55:13.145265 19748 data_transformer.cpp:25] Loading mean file from: /panfs/roc/groups/14/sbedros/tenna031/mo/kaggle-catdog/input/mean.binaryproto
I1010 16:55:13.201197 19748 data_layer.cpp:45] output data size: 50,3,227,227
I1010 16:55:13.278180 19748 net.cpp:122] Setting up data
I1010 16:55:13.278223 19748 net.cpp:129] Top shape: 50 3 227 227 (7729350)
I1010 16:55:13.278228 19748 net.cpp:129] Top shape: 50 (50)
I1010 16:55:13.278231 19748 net.cpp:137] Memory required for data: 30917600
I1010 16:55:13.278240 19748 layer_factory.hpp:77] Creating layer label_data_1_split
I1010 16:55:13.278261 19748 net.cpp:84] Creating Layer label_data_1_split
I1010 16:55:13.278266 19748 net.cpp:406] label_data_1_split <- label
I1010 16:55:13.278275 19748 net.cpp:380] label_data_1_split -> label_data_1_split_0
I1010 16:55:13.278287 19748 net.cpp:380] label_data_1_split -> label_data_1_split_1
I1010 16:55:13.278448 19748 net.cpp:122] Setting up label_data_1_split
I1010 16:55:13.278455 19748 net.cpp:129] Top shape: 50 (50)
I1010 16:55:13.278460 19748 net.cpp:129] Top shape: 50 (50)
I1010 16:55:13.278461 19748 net.cpp:137] Memory required for data: 30918000
I1010 16:55:13.278465 19748 layer_factory.hpp:77] Creating layer conv1
I1010 16:55:13.278481 19748 net.cpp:84] Creating Layer conv1
I1010 16:55:13.278484 19748 net.cpp:406] conv1 <- data
I1010 16:55:13.278491 19748 net.cpp:380] conv1 -> conv1
I1010 16:55:13.284724 19748 net.cpp:122] Setting up conv1
I1010 16:55:13.284739 19748 net.cpp:129] Top shape: 50 96 55 55 (14520000)
I1010 16:55:13.284741 19748 net.cpp:137] Memory required for data: 88998000
I1010 16:55:13.284752 19748 layer_factory.hpp:77] Creating layer relu1
I1010 16:55:13.284761 19748 net.cpp:84] Creating Layer relu1
I1010 16:55:13.284765 19748 net.cpp:406] relu1 <- conv1
I1010 16:55:13.284770 19748 net.cpp:367] relu1 -> conv1 (in-place)
I1010 16:55:13.285008 19748 net.cpp:122] Setting up relu1
I1010 16:55:13.285018 19748 net.cpp:129] Top shape: 50 96 55 55 (14520000)
I1010 16:55:13.285022 19748 net.cpp:137] Memory required for data: 147078000
I1010 16:55:13.285024 19748 layer_factory.hpp:77] Creating layer pool1
I1010 16:55:13.285033 19748 net.cpp:84] Creating Layer pool1
I1010 16:55:13.285037 19748 net.cpp:406] pool1 <- conv1
I1010 16:55:13.285043 19748 net.cpp:380] pool1 -> pool1
I1010 16:55:13.285089 19748 net.cpp:122] Setting up pool1
I1010 16:55:13.285095 19748 net.cpp:129] Top shape: 50 96 27 27 (3499200)
I1010 16:55:13.285097 19748 net.cpp:137] Memory required for data: 161074800
I1010 16:55:13.285100 19748 layer_factory.hpp:77] Creating layer norm1
I1010 16:55:13.285109 19748 net.cpp:84] Creating Layer norm1
I1010 16:55:13.285111 19748 net.cpp:406] norm1 <- pool1
I1010 16:55:13.285116 19748 net.cpp:380] norm1 -> norm1
I1010 16:55:13.285820 19748 net.cpp:122] Setting up norm1
I1010 16:55:13.285832 19748 net.cpp:129] Top shape: 50 96 27 27 (3499200)
I1010 16:55:13.285835 19748 net.cpp:137] Memory required for data: 175071600
I1010 16:55:13.285838 19748 layer_factory.hpp:77] Creating layer conv2
I1010 16:55:13.285848 19748 net.cpp:84] Creating Layer conv2
I1010 16:55:13.285852 19748 net.cpp:406] conv2 <- norm1
I1010 16:55:13.285892 19748 net.cpp:380] conv2 -> conv2
I1010 16:55:13.293023 19748 net.cpp:122] Setting up conv2
I1010 16:55:13.293036 19748 net.cpp:129] Top shape: 50 256 27 27 (9331200)
I1010 16:55:13.293040 19748 net.cpp:137] Memory required for data: 212396400
I1010 16:55:13.293048 19748 layer_factory.hpp:77] Creating layer relu2
I1010 16:55:13.293056 19748 net.cpp:84] Creating Layer relu2
I1010 16:55:13.293059 19748 net.cpp:406] relu2 <- conv2
I1010 16:55:13.293064 19748 net.cpp:367] relu2 -> conv2 (in-place)
I1010 16:55:13.293290 19748 net.cpp:122] Setting up relu2
I1010 16:55:13.293299 19748 net.cpp:129] Top shape: 50 256 27 27 (9331200)
I1010 16:55:13.293303 19748 net.cpp:137] Memory required for data: 249721200
I1010 16:55:13.293305 19748 layer_factory.hpp:77] Creating layer pool2
I1010 16:55:13.293313 19748 net.cpp:84] Creating Layer pool2
I1010 16:55:13.293316 19748 net.cpp:406] pool2 <- conv2
I1010 16:55:13.293321 19748 net.cpp:380] pool2 -> pool2
I1010 16:55:13.293366 19748 net.cpp:122] Setting up pool2
I1010 16:55:13.293372 19748 net.cpp:129] Top shape: 50 256 13 13 (2163200)
I1010 16:55:13.293375 19748 net.cpp:137] Memory required for data: 258374000
I1010 16:55:13.293377 19748 layer_factory.hpp:77] Creating layer norm2
I1010 16:55:13.293383 19748 net.cpp:84] Creating Layer norm2
I1010 16:55:13.293386 19748 net.cpp:406] norm2 <- pool2
I1010 16:55:13.293391 19748 net.cpp:380] norm2 -> norm2
I1010 16:55:13.294098 19748 net.cpp:122] Setting up norm2
I1010 16:55:13.294109 19748 net.cpp:129] Top shape: 50 256 13 13 (2163200)
I1010 16:55:13.294113 19748 net.cpp:137] Memory required for data: 267026800
I1010 16:55:13.294116 19748 layer_factory.hpp:77] Creating layer conv3
I1010 16:55:13.294126 19748 net.cpp:84] Creating Layer conv3
I1010 16:55:13.294131 19748 net.cpp:406] conv3 <- norm2
I1010 16:55:13.294137 19748 net.cpp:380] conv3 -> conv3
I1010 16:55:13.311903 19748 net.cpp:122] Setting up conv3
I1010 16:55:13.311916 19748 net.cpp:129] Top shape: 50 384 13 13 (3244800)
I1010 16:55:13.311919 19748 net.cpp:137] Memory required for data: 280006000
I1010 16:55:13.311928 19748 layer_factory.hpp:77] Creating layer relu3
I1010 16:55:13.311936 19748 net.cpp:84] Creating Layer relu3
I1010 16:55:13.311939 19748 net.cpp:406] relu3 <- conv3
I1010 16:55:13.311944 19748 net.cpp:367] relu3 -> conv3 (in-place)
I1010 16:55:13.312618 19748 net.cpp:122] Setting up relu3
I1010 16:55:13.312630 19748 net.cpp:129] Top shape: 50 384 13 13 (3244800)
I1010 16:55:13.312634 19748 net.cpp:137] Memory required for data: 292985200
I1010 16:55:13.312638 19748 layer_factory.hpp:77] Creating layer conv4
I1010 16:55:13.312649 19748 net.cpp:84] Creating Layer conv4
I1010 16:55:13.312652 19748 net.cpp:406] conv4 <- conv3
I1010 16:55:13.312659 19748 net.cpp:380] conv4 -> conv4
I1010 16:55:13.324756 19748 net.cpp:122] Setting up conv4
I1010 16:55:13.324769 19748 net.cpp:129] Top shape: 50 384 13 13 (3244800)
I1010 16:55:13.324771 19748 net.cpp:137] Memory required for data: 305964400
I1010 16:55:13.324779 19748 layer_factory.hpp:77] Creating layer relu4
I1010 16:55:13.324785 19748 net.cpp:84] Creating Layer relu4
I1010 16:55:13.324789 19748 net.cpp:406] relu4 <- conv4
I1010 16:55:13.324793 19748 net.cpp:367] relu4 -> conv4 (in-place)
I1010 16:55:13.325024 19748 net.cpp:122] Setting up relu4
I1010 16:55:13.325034 19748 net.cpp:129] Top shape: 50 384 13 13 (3244800)
I1010 16:55:13.325037 19748 net.cpp:137] Memory required for data: 318943600
I1010 16:55:13.325040 19748 layer_factory.hpp:77] Creating layer conv5
I1010 16:55:13.325050 19748 net.cpp:84] Creating Layer conv5
I1010 16:55:13.325054 19748 net.cpp:406] conv5 <- conv4
I1010 16:55:13.325060 19748 net.cpp:380] conv5 -> conv5
I1010 16:55:13.339702 19748 net.cpp:122] Setting up conv5
I1010 16:55:13.339715 19748 net.cpp:129] Top shape: 50 256 13 13 (2163200)
I1010 16:55:13.339717 19748 net.cpp:137] Memory required for data: 327596400
I1010 16:55:13.339727 19748 layer_factory.hpp:77] Creating layer relu5
I1010 16:55:13.339732 19748 net.cpp:84] Creating Layer relu5
I1010 16:55:13.339735 19748 net.cpp:406] relu5 <- conv5
I1010 16:55:13.339753 19748 net.cpp:367] relu5 -> conv5 (in-place)
I1010 16:55:13.340440 19748 net.cpp:122] Setting up relu5
I1010 16:55:13.340451 19748 net.cpp:129] Top shape: 50 256 13 13 (2163200)
I1010 16:55:13.340453 19748 net.cpp:137] Memory required for data: 336249200
I1010 16:55:13.340457 19748 layer_factory.hpp:77] Creating layer pool5
I1010 16:55:13.340467 19748 net.cpp:84] Creating Layer pool5
I1010 16:55:13.340471 19748 net.cpp:406] pool5 <- conv5
I1010 16:55:13.340474 19748 net.cpp:380] pool5 -> pool5
I1010 16:55:13.340523 19748 net.cpp:122] Setting up pool5
I1010 16:55:13.340529 19748 net.cpp:129] Top shape: 50 256 6 6 (460800)
I1010 16:55:13.340531 19748 net.cpp:137] Memory required for data: 338092400
I1010 16:55:13.340534 19748 layer_factory.hpp:77] Creating layer fc6
I1010 16:55:13.340541 19748 net.cpp:84] Creating Layer fc6
I1010 16:55:13.340543 19748 net.cpp:406] fc6 <- pool5
I1010 16:55:13.340549 19748 net.cpp:380] fc6 -> fc6
I1010 16:55:13.789791 19748 net.cpp:122] Setting up fc6
I1010 16:55:13.789829 19748 net.cpp:129] Top shape: 50 4096 (204800)
I1010 16:55:13.789834 19748 net.cpp:137] Memory required for data: 338911600
I1010 16:55:13.789845 19748 layer_factory.hpp:77] Creating layer relu6
I1010 16:55:13.789863 19748 net.cpp:84] Creating Layer relu6
I1010 16:55:13.789868 19748 net.cpp:406] relu6 <- fc6
I1010 16:55:13.789880 19748 net.cpp:367] relu6 -> fc6 (in-place)
I1010 16:55:13.790232 19748 net.cpp:122] Setting up relu6
I1010 16:55:13.790242 19748 net.cpp:129] Top shape: 50 4096 (204800)
I1010 16:55:13.790246 19748 net.cpp:137] Memory required for data: 339730800
I1010 16:55:13.790248 19748 layer_factory.hpp:77] Creating layer drop6
I1010 16:55:13.790256 19748 net.cpp:84] Creating Layer drop6
I1010 16:55:13.790259 19748 net.cpp:406] drop6 <- fc6
I1010 16:55:13.790266 19748 net.cpp:367] drop6 -> fc6 (in-place)
I1010 16:55:13.790295 19748 net.cpp:122] Setting up drop6
I1010 16:55:13.790302 19748 net.cpp:129] Top shape: 50 4096 (204800)
I1010 16:55:13.790303 19748 net.cpp:137] Memory required for data: 340550000
I1010 16:55:13.790305 19748 layer_factory.hpp:77] Creating layer fc7
I1010 16:55:13.790318 19748 net.cpp:84] Creating Layer fc7
I1010 16:55:13.790321 19748 net.cpp:406] fc7 <- fc6
I1010 16:55:13.790328 19748 net.cpp:380] fc7 -> fc7
I1010 16:55:13.991396 19748 net.cpp:122] Setting up fc7
I1010 16:55:13.991436 19748 net.cpp:129] Top shape: 50 4096 (204800)
I1010 16:55:13.991439 19748 net.cpp:137] Memory required for data: 341369200
I1010 16:55:13.991452 19748 layer_factory.hpp:77] Creating layer relu7
I1010 16:55:13.991466 19748 net.cpp:84] Creating Layer relu7
I1010 16:55:13.991472 19748 net.cpp:406] relu7 <- fc7
I1010 16:55:13.991478 19748 net.cpp:367] relu7 -> fc7 (in-place)
I1010 16:55:13.992408 19748 net.cpp:122] Setting up relu7
I1010 16:55:13.992419 19748 net.cpp:129] Top shape: 50 4096 (204800)
I1010 16:55:13.992424 19748 net.cpp:137] Memory required for data: 342188400
I1010 16:55:13.992426 19748 layer_factory.hpp:77] Creating layer drop7
I1010 16:55:13.992439 19748 net.cpp:84] Creating Layer drop7
I1010 16:55:13.992442 19748 net.cpp:406] drop7 <- fc7
I1010 16:55:13.992446 19748 net.cpp:367] drop7 -> fc7 (in-place)
I1010 16:55:13.992477 19748 net.cpp:122] Setting up drop7
I1010 16:55:13.992485 19748 net.cpp:129] Top shape: 50 4096 (204800)
I1010 16:55:13.992487 19748 net.cpp:137] Memory required for data: 343007600
I1010 16:55:13.992489 19748 layer_factory.hpp:77] Creating layer fc8
I1010 16:55:13.992498 19748 net.cpp:84] Creating Layer fc8
I1010 16:55:13.992501 19748 net.cpp:406] fc8 <- fc7
I1010 16:55:13.992511 19748 net.cpp:380] fc8 -> fc8
I1010 16:55:13.992722 19748 net.cpp:122] Setting up fc8
I1010 16:55:13.992729 19748 net.cpp:129] Top shape: 50 2 (100)
I1010 16:55:13.992732 19748 net.cpp:137] Memory required for data: 343008000
I1010 16:55:13.992738 19748 layer_factory.hpp:77] Creating layer fc8_fc8_0_split
I1010 16:55:13.992743 19748 net.cpp:84] Creating Layer fc8_fc8_0_split
I1010 16:55:13.992745 19748 net.cpp:406] fc8_fc8_0_split <- fc8
I1010 16:55:13.992749 19748 net.cpp:380] fc8_fc8_0_split -> fc8_fc8_0_split_0
I1010 16:55:13.992787 19748 net.cpp:380] fc8_fc8_0_split -> fc8_fc8_0_split_1
I1010 16:55:13.992830 19748 net.cpp:122] Setting up fc8_fc8_0_split
I1010 16:55:13.992836 19748 net.cpp:129] Top shape: 50 2 (100)
I1010 16:55:13.992839 19748 net.cpp:129] Top shape: 50 2 (100)
I1010 16:55:13.992841 19748 net.cpp:137] Memory required for data: 343008800
I1010 16:55:13.992844 19748 layer_factory.hpp:77] Creating layer accuracy
I1010 16:55:13.992852 19748 net.cpp:84] Creating Layer accuracy
I1010 16:55:13.992861 19748 net.cpp:406] accuracy <- fc8_fc8_0_split_0
I1010 16:55:13.992864 19748 net.cpp:406] accuracy <- label_data_1_split_0
I1010 16:55:13.992868 19748 net.cpp:380] accuracy -> accuracy
…
